data.shape (17544, 69)
pred_METR-LA_GraphWaveNet_2201031823 training started Mon Jan  3 18:23:55 2022
TRAIN XS.shape YS,shape (14021, 1, 69, 12) (14021, 3, 69, 1)
Model Training Started ... Mon Jan  3 18:23:55 2022
TIMESTEP_IN, TIMESTEP_OUT 12 3
==========================================================================================
Layer (type:depth-idx)                   Output Shape              Param #
==========================================================================================
├─Conv2d: 1-1                            [-1, 32, 69, 13]          64
├─ModuleList: 1                          []                        --
|    └─Conv2d: 2-1                       [-1, 32, 69, 12]          2,080
├─ModuleList: 1                          []                        --
|    └─Conv1d: 2-2                       [-1, 32, 69, 12]          2,080
├─ModuleList: 1                          []                        --
|    └─Conv1d: 2-3                       [-1, 256, 69, 12]         8,448
├─ModuleList: 1                          []                        --
|    └─gcn: 2-4                          [-1, 32, 69, 12]          --
|    |    └─nconv: 3-1                   [-1, 32, 69, 12]          --
|    |    └─nconv: 3-2                   [-1, 32, 69, 12]          --
|    |    └─nconv: 3-3                   [-1, 32, 69, 12]          --
|    |    └─nconv: 3-4                   [-1, 32, 69, 12]          --
|    |    └─nconv: 3-5                   [-1, 32, 69, 12]          --
|    |    └─nconv: 3-6                   [-1, 32, 69, 12]          --
|    |    └─linear: 3-7                  [-1, 32, 69, 12]          7,200
├─ModuleList: 1                          []                        --
|    └─BatchNorm2d: 2-5                  [-1, 32, 69, 12]          64
├─ModuleList: 1                          []                        --
|    └─Conv2d: 2-6                       [-1, 32, 69, 10]          2,080
├─ModuleList: 1                          []                        --
|    └─Conv1d: 2-7                       [-1, 32, 69, 10]          2,080
├─ModuleList: 1                          []                        --
|    └─Conv1d: 2-8                       [-1, 256, 69, 10]         8,448
├─ModuleList: 1                          []                        --
|    └─gcn: 2-9                          [-1, 32, 69, 10]          --
|    |    └─nconv: 3-8                   [-1, 32, 69, 10]          --
|    |    └─nconv: 3-9                   [-1, 32, 69, 10]          --
|    |    └─nconv: 3-10                  [-1, 32, 69, 10]          --
|    |    └─nconv: 3-11                  [-1, 32, 69, 10]          --
|    |    └─nconv: 3-12                  [-1, 32, 69, 10]          --
|    |    └─nconv: 3-13                  [-1, 32, 69, 10]          --
|    |    └─linear: 3-14                 [-1, 32, 69, 10]          7,200
├─ModuleList: 1                          []                        --
|    └─BatchNorm2d: 2-10                 [-1, 32, 69, 10]          64
├─ModuleList: 1                          []                        --
|    └─Conv2d: 2-11                      [-1, 32, 69, 9]           2,080
├─ModuleList: 1                          []                        --
|    └─Conv1d: 2-12                      [-1, 32, 69, 9]           2,080
├─ModuleList: 1                          []                        --
|    └─Conv1d: 2-13                      [-1, 256, 69, 9]          8,448
├─ModuleList: 1                          []                        --
|    └─gcn: 2-14                         [-1, 32, 69, 9]           --
|    |    └─nconv: 3-15                  [-1, 32, 69, 9]           --
|    |    └─nconv: 3-16                  [-1, 32, 69, 9]           --
|    |    └─nconv: 3-17                  [-1, 32, 69, 9]           --
|    |    └─nconv: 3-18                  [-1, 32, 69, 9]           --
|    |    └─nconv: 3-19                  [-1, 32, 69, 9]           --
|    |    └─nconv: 3-20                  [-1, 32, 69, 9]           --
|    |    └─linear: 3-21                 [-1, 32, 69, 9]           7,200
├─ModuleList: 1                          []                        --
|    └─BatchNorm2d: 2-15                 [-1, 32, 69, 9]           64
├─ModuleList: 1                          []                        --
|    └─Conv2d: 2-16                      [-1, 32, 69, 7]           2,080
├─ModuleList: 1                          []                        --
|    └─Conv1d: 2-17                      [-1, 32, 69, 7]           2,080
├─ModuleList: 1                          []                        --
|    └─Conv1d: 2-18                      [-1, 256, 69, 7]          8,448
├─ModuleList: 1                          []                        --
|    └─gcn: 2-19                         [-1, 32, 69, 7]           --
|    |    └─nconv: 3-22                  [-1, 32, 69, 7]           --
|    |    └─nconv: 3-23                  [-1, 32, 69, 7]           --
|    |    └─nconv: 3-24                  [-1, 32, 69, 7]           --
|    |    └─nconv: 3-25                  [-1, 32, 69, 7]           --
|    |    └─nconv: 3-26                  [-1, 32, 69, 7]           --
|    |    └─nconv: 3-27                  [-1, 32, 69, 7]           --
|    |    └─linear: 3-28                 [-1, 32, 69, 7]           7,200
├─ModuleList: 1                          []                        --
|    └─BatchNorm2d: 2-20                 [-1, 32, 69, 7]           64
├─ModuleList: 1                          []                        --
|    └─Conv2d: 2-21                      [-1, 32, 69, 6]           2,080
├─ModuleList: 1                          []                        --
|    └─Conv1d: 2-22                      [-1, 32, 69, 6]           2,080
├─ModuleList: 1                          []                        --
|    └─Conv1d: 2-23                      [-1, 256, 69, 6]          8,448
├─ModuleList: 1                          []                        --
|    └─gcn: 2-24                         [-1, 32, 69, 6]           --
|    |    └─nconv: 3-29                  [-1, 32, 69, 6]           --
|    |    └─nconv: 3-30                  [-1, 32, 69, 6]           --
|    |    └─nconv: 3-31                  [-1, 32, 69, 6]           --
|    |    └─nconv: 3-32                  [-1, 32, 69, 6]           --
|    |    └─nconv: 3-33                  [-1, 32, 69, 6]           --
|    |    └─nconv: 3-34                  [-1, 32, 69, 6]           --
|    |    └─linear: 3-35                 [-1, 32, 69, 6]           7,200
├─ModuleList: 1                          []                        --
|    └─BatchNorm2d: 2-25                 [-1, 32, 69, 6]           64
├─ModuleList: 1                          []                        --
|    └─Conv2d: 2-26                      [-1, 32, 69, 4]           2,080
├─ModuleList: 1                          []                        --
|    └─Conv1d: 2-27                      [-1, 32, 69, 4]           2,080
├─ModuleList: 1                          []                        --
|    └─Conv1d: 2-28                      [-1, 256, 69, 4]          8,448
├─ModuleList: 1                          []                        --
|    └─gcn: 2-29                         [-1, 32, 69, 4]           --
|    |    └─nconv: 3-36                  [-1, 32, 69, 4]           --
|    |    └─nconv: 3-37                  [-1, 32, 69, 4]           --
|    |    └─nconv: 3-38                  [-1, 32, 69, 4]           --
|    |    └─nconv: 3-39                  [-1, 32, 69, 4]           --
|    |    └─nconv: 3-40                  [-1, 32, 69, 4]           --
|    |    └─nconv: 3-41                  [-1, 32, 69, 4]           --
|    |    └─linear: 3-42                 [-1, 32, 69, 4]           7,200
├─ModuleList: 1                          []                        --
|    └─BatchNorm2d: 2-30                 [-1, 32, 69, 4]           64
├─ModuleList: 1                          []                        --
|    └─Conv2d: 2-31                      [-1, 32, 69, 3]           2,080
├─ModuleList: 1                          []                        --
|    └─Conv1d: 2-32                      [-1, 32, 69, 3]           2,080
├─ModuleList: 1                          []                        --
|    └─Conv1d: 2-33                      [-1, 256, 69, 3]          8,448
├─ModuleList: 1                          []                        --
|    └─gcn: 2-34                         [-1, 32, 69, 3]           --
|    |    └─nconv: 3-43                  [-1, 32, 69, 3]           --
|    |    └─nconv: 3-44                  [-1, 32, 69, 3]           --
|    |    └─nconv: 3-45                  [-1, 32, 69, 3]           --
|    |    └─nconv: 3-46                  [-1, 32, 69, 3]           --
|    |    └─nconv: 3-47                  [-1, 32, 69, 3]           --
|    |    └─nconv: 3-48                  [-1, 32, 69, 3]           --
|    |    └─linear: 3-49                 [-1, 32, 69, 3]           7,200
├─ModuleList: 1                          []                        --
|    └─BatchNorm2d: 2-35                 [-1, 32, 69, 3]           64
├─ModuleList: 1                          []                        --
|    └─Conv2d: 2-36                      [-1, 32, 69, 1]           2,080
├─ModuleList: 1                          []                        --
|    └─Conv1d: 2-37                      [-1, 32, 69, 1]           2,080
├─ModuleList: 1                          []                        --
|    └─Conv1d: 2-38                      [-1, 256, 69, 1]          8,448
├─ModuleList: 1                          []                        --
|    └─gcn: 2-39                         [-1, 32, 69, 1]           --
|    |    └─nconv: 3-50                  [-1, 32, 69, 1]           --
|    |    └─nconv: 3-51                  [-1, 32, 69, 1]           --
|    |    └─nconv: 3-52                  [-1, 32, 69, 1]           --
|    |    └─nconv: 3-53                  [-1, 32, 69, 1]           --
|    |    └─nconv: 3-54                  [-1, 32, 69, 1]           --
|    |    └─nconv: 3-55                  [-1, 32, 69, 1]           --
|    |    └─linear: 3-56                 [-1, 32, 69, 1]           7,200
├─ModuleList: 1                          []                        --
|    └─BatchNorm2d: 2-40                 [-1, 32, 69, 1]           64
├─Conv2d: 1-2                            [-1, 512, 69, 1]          131,584
├─Conv2d: 1-3                            [-1, 3, 69, 1]            1,539
==========================================================================================
Total params: 292,163
Trainable params: 292,163
Non-trainable params: 0
Total mult-adds (M): 79.10
==========================================================================================
Input size (MB): 0.00
Forward/backward pass size (MB): 11.00
Params size (MB): 1.11
Estimated Total Size (MB): 12.12
==========================================================================================
…
