…
pred_METR-LA_STGCN3_2112241833 training started Fri Dec 24 18:33:19 2021
getXSYS data.shape(35088, 69)
getXSYS XS.shape(28056, 1, 12, 69)
getXSYS YS.shape(28056, 1, 1, 69)
TRAIN XS.shape YS,shape (28056, 1, 12, 69) (28056, 1, 1, 69)
Model Training Started ... Fri Dec 24 18:33:19 2021
TIMESTEP_IN, TIMESTEP_OUT 12 3
==========================================================================================
Layer (type:depth-idx)                   Output Shape              Param #
==========================================================================================
├─st_conv_block: 1-1                     [-1, 64, 8, 69]           --
|    └─temporal_conv_layer: 2-1          [-1, 16, 10, 69]          --
|    |    └─align: 3-1                   [-1, 16, 12, 69]          --
|    |    └─Conv2d: 3-2                  [-1, 32, 10, 69]          128
|    └─spatio_conv_layer: 2-2            [-1, 16, 10, 69]          784
|    └─temporal_conv_layer: 2-3          [-1, 64, 8, 69]           --
|    |    └─align: 3-3                   [-1, 64, 10, 69]          --
|    |    └─Conv2d: 3-4                  [-1, 64, 8, 69]           3,136
|    └─LayerNorm: 2-4                    [-1, 8, 69, 64]           8,832
|    └─Dropout: 2-5                      [-1, 64, 8, 69]           --
├─st_conv_block: 1-2                     [-1, 64, 4, 69]           --
|    └─temporal_conv_layer: 2-6          [-1, 16, 6, 69]           --
|    |    └─align: 3-5                   [-1, 16, 8, 69]           1,040
|    |    └─Conv2d: 3-6                  [-1, 32, 6, 69]           6,176
|    └─spatio_conv_layer: 2-7            [-1, 16, 6, 69]           784
|    └─temporal_conv_layer: 2-8          [-1, 64, 4, 69]           --
|    |    └─align: 3-7                   [-1, 64, 6, 69]           --
|    |    └─Conv2d: 3-8                  [-1, 64, 4, 69]           3,136
|    └─LayerNorm: 2-9                    [-1, 4, 69, 64]           8,832
|    └─Dropout: 2-10                     [-1, 64, 4, 69]           --
├─output_layer: 1-3                      [-1, 1, 1, 69]            --
|    └─temporal_conv_layer: 2-11         [-1, 64, 1, 69]           --
|    |    └─align: 3-9                   [-1, 64, 4, 69]           --
|    |    └─Conv2d: 3-10                 [-1, 128, 1, 69]          32,896
|    └─LayerNorm: 2-12                   [-1, 1, 69, 64]           8,832
|    └─temporal_conv_layer: 2-13         [-1, 64, 1, 69]           --
|    |    └─align: 3-11                  [-1, 64, 1, 69]           --
|    |    └─Conv2d: 3-12                 [-1, 64, 1, 69]           4,160
|    └─Conv2d: 2-14                      [-1, 1, 1, 69]            65
==========================================================================================
Total params: 78,801
Trainable params: 78,801
Non-trainable params: 0
Total mult-adds (M): 8.39
==========================================================================================
Input size (MB): 0.00
Forward/backward pass size (MB): 1.42
Params size (MB): 0.30
Estimated Total Size (MB): 1.72
==========================================================================================
…
